best_model.pth (torch, 314101 bytes, 15 tensors)

prompt_embedding.weight f4 [25, 32]
0.9920755 0.85852563 0.859965 -0.62917656 1.7498672 -0.6346265 -0.09969287 -0.114906274
-0.5986307 0.39032203 -0.348593 0.14887802 -1.085195 -0.63205326 -1.375199 0.15585458
0.83836204 -0.56769675 0.17892879 -0.58060664 0.03190088 -0.9002271 0.5320698 -1.6937357
-0.3008574 1.2530943 -0.7685731 1.5354767 -1.2379022 -2.2462704 1.7750072 -0.8937806
-1.251629 0.34029266 -1.1026777 -1.0980678 0.68489796 -0.7234866 0.695994 -0.81566274
0.919664 -1.2966398 -0.22178443 -0.63301116 0.81077427 0.9778509 0.21203257 -1.7077949
0.5302357 -1.5746688 -0.5471292 0.7504063 0.28928575 -2.3206394 -1.7388837 -1.0673602
1.4448423 -0.058920678 -0.52866495 0.8883343 -0.4621267 0.8724687 0.30138737 1.2852647
1.4662309 0.48550105 -0.66107106 -0.06712311 -0.08524918 -0.34232515 0.70134866 0.6175446
0.6654487 0.76928717 -0.1612742 -0.27644503 -0.5169739 1.9817581 -1.9309369 -0.625191
-0.34159985 -1.4006603 1.5147203 0.55801326 1.5199786 0.1747104 -1.3442316 0.6208448
-0.65457135 1.7333865 0.06151531 -0.88834953 -0.017755603 -1.2404723 0.862821 0.9586097
-0.613901 0.013445524 0.5973039 -1.915569 0.64189875 0.3652426 1.6952331 -0.91203475
-1.810259 -2.400149 0.43714345 0.061258744 -0.79428613 0.79348636 0.10292926 -0.45244336
0.8836611 0.49664965 0.605218 0.33481452 0.35338083 -2.1114764 -0.9139712 -0.143544
-0.102084264 -1.573206 0.469841 0.3722028 0.43120968 -0.15549688 1.1241165 -0.59842527
0.79367065 0.35220325 0.66337407 0.1423299 -0.75248253 0.5175969 0.5930188 1.3163502
-1.6818138 0.15480399 1.8625848 1.0401343 0.59228224 -0.5755649 -0.47576395 -1.9557031
-1.3161427 1.5662729 -1.3112446 -0.0723443 1.3402293 -0.9102092 1.633532 0.22417356
-0.88042074 0.90708566 -1.9250691 1.3104635 1.3315748 -0.41255492 0.62578803 0.24393183
0.35007513 1.6058016 0.35124716 -0.41212612 -2.6028917 1.019961 2.17428 0.77274823
-0.74300545 2.0453954 -1.6468819 0.06862712 -0.26150072 2.0872943 0.5369202 -0.5092898
-1.2441517 -0.48408177 0.15903682 -0.37728626 -0.34323046 -1.2053486 0.8818257 0.58060974
-0.36080134 0.63685995 -0.17559083 0.38857108 -0.6608772 0.73149586 0.29705623 -0.16384074
-0.99843276 -0.7302144 -0.41001597 1.5806936 1.9697627 2.424418 -0.08388193 -0.6641479
0.1801772 1.3073418 -0.5678678 1.2484895 1.0897979 -1.0417515 -0.3799335 0.1805209
2.2648664 -0.22533698 0.7082278 -0.35225797 0.8009925 -0.14488252 0.30609408 0.5091333
-0.12771633 -0.83063596 -0.118215166 -0.7909474 -0.68645763 -0.6709432 1.3530165 0.77620924
-1.5156664 -0.17919888 0.8951135 -0.05410867 1.3286738 0.342045 1.6683455 -0.53303015
1.0247548 0.3058935 -0.16206796 -0.5744608 1.1234736 -0.86416197 0.35984913 -1.0256748
-1.0372733 -0.08881447 1.630174 -0.3245146 0.7438331 0.80472505 -1.0077441 0.4154392
-1.5104744 1.6842037 0.5082551 1.5309322 -0.23937745 2.3636136 0.18742365 -1.516263
00000000: a9f8 7d3f 56c8 5b3f ab26 5c3f b711 21bf
00000010: a6fb df3f e276 22bf c72b ccbd fb53 ebbd
00000020: dd3f 19bf 4ad8 c73e c87a b2be 7b73 183e
00000030: abe7 8abf 3ece 21bf 8506 b0bf 5898 1f3e
00000040: e59e 563f 9354 11bf 1c39 373e a3a2 14bf
00000050: 7faa 023d 4975 66bf ba35 083f 55cc d8bf
00000060: fb09 9abe 6565 a03f 35c1 44bf 808a c43f
00000070: 9473 9ebf e5c2 0fc0 7033 e33f cece 64bf
00000080: 6135 a0bf d73a ae3e 8b24 8dbf 7c8d 8cbf
00000090: 7955 2f3f 6b36 39bf aa2c 323f 46cf 50bf
000000a0: 1a6f 6b3f 4bf8 a5bf 751b 63be 050d 22bf
000000b0: e78e 4f3f 7054 7a3f 111f 593e 0699 dabf
000000c0: 87bd 073f bf8e c9bf a910 0cbf a11a 403f
000000d0: 431d 943e 5b85 14c0 be93 debf 429f 88bf
000000e0: 98f0 b83f cf56 71bd 9656 07bf e069 633f
000000f0: df9b ecbe 1c5a 5f3f 724f 9a3e 8e83 a43f
00000100: 74ad bb3f 9893 f83e f43b 29bf d777 89bd
00000110: 1f97 aebd 3e45 afbe 968b 333f 6717 1e3f
00000120: d95a 2a3f 01f0 443f 1025 25be 348a 8dbe
00000130: 6758 04bf 40aa fd3f f128 f7bf 840c 20bf
00000140: 2de6 aebe d648 b3bf 5be2 c13f f5d9 0e3f
00000150: a98e c23f 48e7 323e c80f acbf afef 1e3f
00000160: fd91 27bf 9cdf dd3f 7af7 7b3d e06a 63bf
00000170: 3374 91bc ccc7 9ebf d6e1 5c3f 7267 753f
00000180: 9e28 1dbf 9d4a 5c3c e9e8 183f 5d31 f5bf
00000190: 7a53 243f 1401 bb3e 66fd d83f 1c7b 69bf
000001a0: 91b6 e7bf 0b9c 19c0 44d1 df3e 73ea 7a3d
000001b0: 5656 4bbf ec21 4b3f 93cc d23d a8a6 e7be
000001c0: 9d37 623f dd48 fe3e 91ef 1a3f cf6c ab3e
000001d0: 55ee b43e 6e22 07c0 04fa 69bf 33fd 12be
000001e0: 8e11 d1bd d05e c9bf 008f f03e 5e91 be3e
000001f0: 84c7 dc3e 933a 1fbe 0de3 8f3f 6632 19bf
00000200: 002e 4b3f fc53 b43e e2d2 293f eebe 113e
00000210: b2a2 40bf 3b81 043f 14d0 173f 2a7e a83f
00000220: ad45 d7bf f084 1e3e 2e69 ee3f 1f23 853f
00000230: cf9f 173f 3958 13bf 5597 f3be 7b54 fabf
00000240: 5d77 a8bf a17b c83f ddd6 a7bf 4029 94bd
00000250: a28c ab3f 7803 69bf 9417 d13f c18d 653e
00000260: 4163 61bf c436 683f aa68 f6bf 45bd a73f
00000270: 0b71 aa3f 663a d3be a533 203f 44c9 793e
00000280: 0c3d b33e e88a cd3f abd6 b33e 3202 d3be
00000290: c795 26c0 158e 823f 6727 0b40 d4d2 453f
000002a0: 9b35 3ebf c2e7 0240 07cd d2bf 608c 8c3d
000002b0: 6ce3 85be 3b96 0540 9a73 093f d160 02bf
000002c0: 5d40 9fbf 91d9 f7be 8cda 223e aa2b c1be
000002d0: e7bb afbe dd48 9abf 54bf 613f d7a2 143f
000002e0: f4ba b8be 4109 233f 15ce 33be caf2 c63e
000002f0: 402f 29bf 5043 3b3f c117 983e dec5 27be
00000300: 4a99 7fbf 55ef 3abf 9ded d1be 2b54 ca3f
00000310: 2f21 fc3f aa29 1b40 4aca abbd 9905 2abf
00000320: 5f80 383e fa56 a73f c95f 11bf 81ce 9f3f
00000330: 7f7e 8b3f 1d58 85bf a586 c2be 79da 383e
00000340: 92f3 1040 bdbe 66be 6b4e 353f 285b b4be
00000350: d80d 4d3f 155c 14be 5db8 9c3e 8f56 023f
00000360: 12c8 02be 8fa4 54bf cb1a f2bd 877b 4abf
00000370: b0bb 2fbf efc2 2bbf a52f ad3f a6b5 463f
00000380: 5b01 c2bf e97f 37be 2926 653f 0ea1 5dbd
00000390: fc11 aa3f 8620 af3e 588c d53f aa74 08bf
000003a0: 2a2b 833f 139e 9c3e 25f5 25be dd0f 13bf
000003b0: fccd 8f3f b839 5dbf 253e b83e 5049 83bf
000003c0: 5fc5 84bf 5ce4 b5bd 8ba9 d03f c726 a6be
000003d0: d96b 3e3f 7602 4e3f c2fd 80bf 72b4 d43e
000003e0: 3a57 c1bf fd93 d73f 021d 023f 96f5 c33f
000003f0: 5d1f 75be 7245 1740 fceb 3f3e e814 c2bf

prompt_encoder.weight_ih_l0 f4 [256, 32]
0.09108209 -0.0030872484 0.13452975 0.00988875 -0.050203707 -0.12525986 0.006042623 -0.029387351
-0.11759859 0.0007590404 -0.00450934 -0.03036901 -0.048997764 -0.036191124 -0.02049258 -0.07073956
0.07610435 0.08852088 0.13514934 0.08737613 -0.10683936 0.01477114 -0.059173852 -0.06892559
0.06848254 0.049556896 -0.12290895 -0.04144678 0.040829644 0.04720699 -0.09472711 0.0066234693
-0.05889372 -0.061993975 0.11985759 -0.05958134 -0.08580257 -0.03520273 -0.06924315 0.0399279
-0.13603696 0.1506411 0.027489077 0.14877222 -0.021259448 -0.02335004 -0.043433204 -0.05789961
0.06649604 -0.051468816 -0.020537138 -0.1469835 0.0909916 0.03602888 -0.015506194 -0.08495448
-0.037253957 0.15610099 0.07489774 -0.04015515 -0.017397018 -0.08135136 0.09033007 -0.058066234
0.004523324 0.024735764 0.06576962 0.08773351 0.04376879 -0.059955757 0.038405113 -0.10255153
0.06346107 -0.07613106 -0.019756367 0.08279134 -0.0056942967 0.0393856 0.09315162 -0.09348124
-0.0083896695 -0.04382497 0.05971557 -0.0636641 -0.08936025 -0.02740804 0.13283469 -0.0015423915
0.011820121 0.034193918 0.026771467 0.042628847 0.060923126 0.08256854 0.049197257 -0.11460872
-0.1033199 -0.012181186 -0.11829332 0.06146094 0.08511127 -0.09432614 -0.10655156 -0.11359749
-0.003313395 0.06664583 0.06536379 -0.059416346 -0.11183813 0.022797111 -0.11482253 0.029987294
0.04769048 0.042137545 0.036165733 0.02967869 0.053640027 0.118147 0.019328872 0.121023275
0.044006832 -0.05309802 -0.11351676 0.033397958 -0.052710347 0.014770005 0.1125631 -0.042814247
0.12253536 -0.044791587 0.12366849 -0.011076161 -0.05983935 0.08329404 0.021771906 -0.08520077
0.09885324 -0.011370943 0.09101011 0.11445248 0.015897542 -0.07020135 -0.07469221 0.03853297
0.135568 0.09131257 0.07125457 0.105685435 0.063580334 -0.04007115 -0.051147696 -0.045819
-0.056692727 0.013084946 -0.08228145 0.09168474 -0.063018136 -0.04881336 0.08741991 0.09146231
0.10515903 0.066091254 0.018785713 0.022893813 0.12282106 -0.083730884 -0.054290246 -0.045387577
0.051361095 -0.02772994 -0.038402174 0.02129268 0.09483722 -0.15045437 -0.006509362 0.06628785
0.06491162 -0.01850856 0.022509892 0.070688546 -0.038073637 0.06408096 0.027594253 0.03911499
0.07857999 0.049946666 -0.13294075 0.029539673 -0.029772585 -0.00953698 -0.022441711 -0.08513193
0.11043135 0.034242086 -0.012715843 -0.0483505 0.02274049 -0.028126478 -0.111132436 -0.11612047
-0.11334309 -0.0025338933 -0.051659655 0.07384086 -0.11192775 0.08414566 -0.047294162 0.042174913
0.045744378 -0.054441426 0.119028196 0.09948068 0.035365537 -0.07856124 -0.040870592 0.00031558573
-0.0045330916 -0.09683361 0.001666797 0.029934073 -0.12859656 0.025358744 0.08561882 0.06819424
-0.01309859 0.017187629 0.0079509085 -0.10868313 0.07190746 0.05976514 0.034678034 0.06394689
0.030318942 -0.017983738 -0.031657603 0.14503482 0.0017543813 -0.09365747 -0.14221375 0.111220926
-0.05384577 -0.010553023 0.014379693 -0.15043038 0.12717736 -0.0031988102 0.066075124 -0.009676861
0.05587289 0.14265236 -0.10697351 0.11644081 -0.11376917 -0.011132013 0.0996836 0.017068818
00000000: 3f89 ba3d 6f53 4abb 2bc2 093e 6c04 223c
00000010: 67a2 4dbd 1f44 00be 3201 c63b bebd f0bc
00000020: 88d7 f0bd 57fa 463a 16c3 93bb 6ec8 f8bc
00000030: e1b1 48bd 253d 14bd 0ee0 a7bc e7df 90bd
00000040: 99dc 9b3d 6f4a b53d 9764 0a3e 42f2 b23d
00000050: 98ce dabd a702 723c 4860 72bd dc28 8dbd
00000060: 9340 8c3d 2cfc 4a3d b0b7 fbbd 19c4 29bd
00000070: fc3c 273d 1e5c 413d 4900 c2bd b009 d93b
00000080: 8b3a 71bd 65ed 7dbd e577 f53d 900b 74bd
00000090: 42b9 afbd bd30 10bd 5acf 8dbd 708b 233d
000000a0: 464d 0bbe a941 1a3e c630 e13c bf57 183e
000000b0: 4b28 aebc 9548 bfbc 04e7 31bd 2428 6dbd
000000c0: 132f 883d f7d0 52bd 803d a8bc d882 16be
000000d0: ce59 ba3d 0593 133d b10d 7ebc 9dfc adbd
000000e0: 9b97 18bd f0d8 1f3e fc63 993d ba79 24bd
000000f0: 3184 8ebc 8b9b a6bd f9fe b83d dcd6 6dbd
00000100: 6438 943b a8a2 ca3c 39b2 863d a0ad b33d
00000110: e746 333d 2b94 75bd ae4e 1d3d 8906 d2bd
00000120: e1f7 813d 9aea 9bbd 1bd8 a1bc 828e a93d
00000130: 3997 babb cb52 213d 47c6 be3d 1873 bfbd
00000140: d374 09bc d081 33bd 5098 743d 5362 82bd
00000150: 8202 b7bd d386 e0bc d105 083e 122a caba
00000160: 2ea9 413c ec0e 0c3d d64f db3c 969b 2e3d
00000170: 878a 793d b219 a93d 1083 493d fab7 eabd
00000180: 6299 d3bd 9993 47bc c543 f2bd 77be 7b3d
00000190: d14e ae3d 102e c1bd b437 dabd cda5 e8bd
000001a0: 8b25 59bb 9c7d 883d 73dd 853d 8e5e 73bd
000001b0: 640b e5bd 02c1 ba3c 1328 ebbd eaa7 f53c
000001c0: 1857 433d 6b98 2c3d 8522 143d b920 f33c
000001d0: a5b5 5b3d 0ef7 f13d 9557 9e3c 0ddb f73d
000001e0: 8240 343d 4f7d 59bd 7a7b e8bd 4ccc 083d
000001f0: cee6 57bd e4fd 713c 7c87 e63d fe5d 2fbd
00000200: d2f3 fa3d 6277 37bd e845 fd3d c978 35bc
00000210: 1b1a 75bd 1196 aa3d ff5a b23c be7d aebd
00000220: 9173 ca3d 314d 3abc 8263 ba3d 1066 ea3d
00000230: 903b 823c bac5 8fbd 3bf8 98bd bfd4 1d3d
00000240: 56d2 0a3e 1602 bb3d eaed 913d 9b71 d83d
00000250: 6836 823d a521 24bd 3f80 51bd b4ac 3bbd
00000260: a236 68bd 3e62 563c 2d83 a8bd 35c5 bb3d
00000270: a70f 81bd 85f0 47bd 3609 b33d 9750 bb3d
00000280: 9e5d d73d da5a 873d 7fe4 993c ce8b bb3c
00000290: 9c89 fb3d 197b abbd 735f 5ebd 53e8 39bd
000002a0: 0360 523d e629 e3bc 994b 1dbd fd6d ae3c
000002b0: 043a c23d b610 1abe 7c4c d5bb edc1 873d
000002c0: 62f0 843d 439f 97bc aa66 b83c 28c5 903d
000002d0: 1af3 1bbd e13c 833d 580d e23c 0a37 203d
000002e0: 8cee a03d e094 4c3d 9f21 08be 2ffd f13c
000002f0: a3e5 f3bc fe40 1cbc aed7 b7bc a659 aebd
00000300: d529 e23d 6e41 0c3d 1c56 50bc 2d0b 46bd
00000310: 444a ba3c 8069 e6bc 6799 e3bd 92d0 edbd
00000320: 6c20 e8bd ad0f 26bb 1399 53bd e039 973d
00000330: 603a e5bd 8f54 ac3d 86b7 41bd 9abf 2c3d
00000340: 755e 3b3d f9fd 5ebd 0ec5 f33d 87bc cb3d
00000350: 74db 103d b7e4 a0bd ec67 27bd 3375 a539
00000360: 548a 94bb b350 c6bd 6d78 da3a 4d38 f53c
00000370: d1ae 03be 24bd cf3c eb58 af3d 6ca9 8b3d
00000380: 789b 56bc 12cd 8c3c 8744 023c 4395 debd
00000390: 3844 933d 4bcc 743d 8e0a 0e3d 96f6 823d
000003a0: 6e5f f83c a252 93bc 67ab 01bd 0284 143e
000003b0: 45f3 e53a 7dcf bfbd 7ba0 11be ccc7 e33d
000003c0: 628d 5cbd 96e6 2cbc ce98 6b3c 6c0a 1abe
000003d0: c83a 023e 21a3 51bb 6552 873d b28b 1ebc
000003e0: f9da 643d 7613 123e ed14 dbbd 8578 ee3d
000003f0: d0ff e8bd 0c63 36bc ea26 cc3d e8d3 8b3c

prompt_encoder.weight_hh_l0 f4 [256, 64]
0.13610564 0.026201395 -0.074032634 0.11412182 -0.106913 0.0021950393 -0.1440066 0.0057990327
-0.0035183758 0.14270897 0.07075699 0.057548143 -0.12378588 -0.002365938 0.010108625 -0.061779365
-0.009808931 -0.009974808 0.10858508 0.072484985 -0.10195511 0.069948785 0.002780023 0.07768601
0.07369468 -0.00880527 0.024573782 -0.09600714 -0.045488693 0.013142674 0.15799314 -0.0357268
-0.0928853 -0.060644146 -0.061482113 0.071376234 0.06639723 -0.08300658 0.0406486 -0.09058796
0.081708044 0.09712093 0.023143599 0.13583724 0.092891745 -0.01250809 0.01465637 0.022562608
-0.08857884 0.13912219 0.06297751 0.1558899 -0.10973677 -0.08488373 -0.041700374 0.06078892
-0.016132759 0.0706471 -0.13351208 -0.02661714 0.04810638 -0.083168484 0.103062026 0.11877332
-0.054595415 0.006638513 -0.07472828 -0.0029764357 -0.0040677884 0.111022 -0.057336677 -0.02838383
-0.098308496 -0.013563927 -0.0509401 0.040940344 -0.015937194 0.07869673 -0.03283175 0.078392796
0.09075188 -0.09304221 -0.0019288766 -0.0043577077 0.12015571 -0.02723342 -0.15665959 0.076013625
0.031262282 -0.14905699 -0.0706275 0.0258799 0.08541533 0.060203813 0.062278435 0.027309094
-0.05794578 -0.0013470268 -0.009577157 0.086377904 0.019657293 0.080505125 -0.037711456 -0.14782917
0.009652642 0.08980357 0.12589039 0.11375282 0.15072633 0.017618535 -0.066631794 -0.020894319
0.041331593 0.10298027 0.03406198 0.081231914 -0.1440902 -0.13579407 0.07004442 0.09020817
-0.014235804 0.026812749 0.07374098 -0.121108904 0.10402458 -0.101250626 0.111854024 0.07243699
0.053891204 0.070793554 -0.09807986 -0.04159856 0.00031103566 -0.020118015 0.08362591 -0.098064445
0.034137927 0.031983685 -0.03456657 0.13663563 0.07064899 -0.0496394 -0.15176019 -0.0579788
0.117692545 -0.15207127 0.12751548 0.026945656 0.1169879 -0.041437764 0.03172277 -0.07486264
-0.08542834 0.036628444 -0.04005595 -0.09410226 -0.025188604 0.023663973 -0.048674528 0.1442736
-0.046137124 -0.1385257 -0.09274869 0.034298457 -0.04928738 0.0093059195 -0.054001026 0.07073351
0.08975995 0.018140864 -0.054285657 -0.068225294 0.10502343 0.11308811 -0.021496087 -0.08957959
-0.078495555 0.019410787 -0.124408916 0.15190636 -0.07459548 -0.034941506 -0.14192584 -0.05949315
0.0129569555 -0.118559375 -0.03399858 -0.121987455 -0.056080848 -0.10023658 0.08511052 0.04847997
-0.015806861 -0.017611632 0.050987214 -0.09622625 0.021395244 -0.0018410637 0.02117839 -0.09030874
0.06630615 0.06965238 0.08355357 0.12455506 -0.01204955 -0.09751691 -0.119869225 0.0037101656
-0.031478334 -0.02039608 0.09824297 0.060544603 0.09867665 -0.07199865 0.07614392 -0.1435137
-0.05894111 -0.113748915 0.05145488 0.12605739 0.121890105 0.08198798 0.04691164 0.13758814
-0.08566944 0.009294852 0.09355431 -0.049303196 -0.057333607 0.14202029 0.07850403 0.0321848
-0.0695837 0.019306043 0.06692894 0.1493569 -0.056235727 0.09548335 0.123475954 0.029563399
-0.087273665 0.0547225 -0.10793758 0.1478394 -0.012856277 -0.039904986 0.07512109 0.16061693
-0.069572255 0.07324818 -0.06758403 -0.110236354 0.030672604 -0.12627983 -0.045985024 0.053948496
00000000: 475f 0b3e 4fa4 d63c 6c9e 97bd b3b8 e93d
00000010: 34f5 dabd a6da 0f3b 7776 13be d005 be3b
00000020: 8d94 66bb 4d22 123e 0ae9 903d 9ab7 6b3d
00000030: 7483 fdbd da0d 1bbb a59e 253c 5c0c 7dbd
00000040: a3b5 20bc 616d 23bc db61 de3d 0273 943d
00000050: d7cd d0bd 4f41 8f3d 0c31 363b d819 9f3d
00000060: 3ded 963d fb43 10bc f54e c93c 649f c4bd
00000070: 5a52 3abd 5f54 573c f4c8 213e 4456 12bd
00000080: a63a bebd ff65 78bd abd4 7bbd b42d 923d
00000090: 45fb 873d 5bff a9bd 257f 263d 2e86 b9bd
000000a0: 8c56 a73d 57e7 c63d a597 bd3c eb18 0b3e
000000b0: 073e be3d bbee 4cbc 4521 703c 38d5 b83c
000000c0: d368 b5bd 0c76 0e3e 5afa 803d 9aa1 1f3e
000000d0: acbd e0bd 85d7 adbd 03ce 2abd cdfd 783d
000000e0: d928 84bc 6daf 903d 64b7 08be 300c dabc
000000f0: 320b 453d 3d54 aabd 2f12 d33d 6d3f f33d
00000100: 719f 5fbd e287 d93b 240b 99bd 4e10 43bb
00000110: 154b 85bb 815f e33d ddd9 6abd 3585 e8bc
00000120: f755 c9bd 3c3b 5ebc 91a6 50bd 10b1 273d
00000130: b88e 82bc c02b a13d 967a 06bd 678c a03d
00000140: 1fdc b93d ea8c bebd 5cd2 fcba 1acb 8ebb
00000150: 3214 f63d 9f18 dfbc 5f6b 20be 08ad 9b3d
00000160: e10c 003d 65a2 18be 27a5 90bd 1602 d43c
00000170: 3cee ae3d 4698 763d ac17 7f3d 52b7 df3c
00000180: 8e58 6dbd b88e b0ba 82e9 1cbc e6e6 b03d
00000190: 5508 a13c dfdf a43d 5477 1abd 8860 17be
000001a0: 1d26 1e3c efea b73d 69e9 003e 3df7 e83d
000001b0: 0158 1a3e bf54 903c 4076 88bd 902a abbc
000001c0: 514b 293d 52e7 d23d 9384 0b3d eb5c a63d
000001d0: 628c 13be 9a0d 0bbe 7373 8f3d 10bf b83d
000001e0: 4a3d 69bc 69a6 db3c 8305 973d f207 f8bd
000001f0: d70a d53d 7d5c cfbd b913 e53d d859 943d
00000200: 06bd 5c3d 36fc 903d 18de c8bd 4063 2abd
00000210: 8012 a339 89ce a4bc 1044 ab3d 03d6 c8bd
00000220: 36d4 0b3d 5301 033d ad95 0dbd 36ea 0b3e
00000230: 6bb0 903d af52 4bbd 0667 1bbe 2e7b 6dbd
00000240: ca08 f13d 92b8 1bbe 6b93 023e 23bd dc3c
00000250: 5a97 ef3d a5ba 29bd bcef 013d 9551 99bd
00000260: 0ef5 aebd b507 163d b511 24bd b0b8 c0bd
00000270: 5558 cebc f3da c13c f15e 47bd 75bc 133e
00000280: 48fa 3cbd aed9 0dbe 06f3 bdbd 8a7c 0c3d
00000290: 90e1 49bd db77 183c 2e30 5dbd bbdc 903d
000002a0: 11d4 b73d 269c 943c a35a 5ebd b4b9 8bbd
000002b0: 8616 d73d bd9a e73d 9018 b0bc 8175 b7bd
000002c0: 47c2 a0bd 5f03 9f3c 1aca febd 578d 1b3e
000002d0: 84c5 98bd d31e 0fbd 0255 11be 17af 73bd
000002e0: 6949 543c 42cf f2bd 1842 0bbd 8fd4 f9bd
000002f0: 08b5 65bd d648 cdbd 6d4e ae3d ef92 463d
00000300: 647d 81bc 4546 90bc f8d7 503d 4512 c5bd
00000310: 1445 af3c d94f f1ba 4e7e ad3c caf3 b8bd
00000320: 85cb 873d e8a5 8e3d 221e ab3d b916 ff3d
00000330: 7a6b 45bc f2b6 c7bd ff7d f5bd 4026 733b
00000340: 6def 00bd ae15 a7bc 9c33 c93d 9efd 773d
00000350: fc16 ca3d 0774 93bd 58f1 9b3d 41f5 12be
00000360: 3c6c 71bd 31f5 e8bd 5ac2 523d 3015 013e
00000370: 85a1 f93d 50e9 a73d 6b26 403d e8e3 0c3e
00000380: 7673 afbd 6f49 183c 6799 bf3d 26f2 49bd
00000390: a5d6 6abd c46d 113e b9c6 a03d 35d4 033d
000003a0: e681 8ebd b527 9e3c 0a12 893d 04f1 183e
000003b0: 6f57 66bd c68c c33d f6e0 fc3d f12e f23c
000003c0: 89bc b2bd b324 603d 610e ddbd 3663 173e
000003d0: 22a3 52bc 6973 23bd 16d9 993d c478 243e
000003e0: e67b 8ebd 2403 963d 7f69 8abd 99c3 e1bd
000003f0: 1d45 fb3c 804f 01be cb5a 3cbd 19f9 5c3d

prompt_encoder.bias_ih_l0 f4 [256]
0.10169606 -0.046459343 -0.01318216 0.08549633 0.03002352 0.013778205 0.004546186 0.01586482
-0.08584718 -0.07149806 0.07412283 0.086144775 0.060017824 0.075993925 -0.033923265 0.086139366
0.1326445 0.03238736 0.04522461 0.12860116 0.072426476 0.04091242 0.09784225 -0.051551964
-0.014492098 0.107519545 -0.027890868 0.066923425 0.09054828 0.033095706 0.050113738 0.055173643
0.053611442 0.068329096 -0.046192784 0.050029885 -0.037631035 -0.08993497 0.052255303 -0.08277046
-0.0016237764 -0.052417055 0.030538756 -0.029968033 -0.04050955 0.07246628 0.06642339 0.10493856
0.04584155 -0.08157962 0.11802178 0.112981364 -0.051009577 0.11809278 0.03262515 0.12050968
0.055522677 0.13207592 0.13886872 -0.04530235 -0.026323115 0.11687746 0.13310613 0.105621666
0.094729796 0.11887304 0.14912647 -0.102437094 -0.06680826 0.10829556 0.07969585 -0.07418625
-0.028766109 -0.046675574 0.11696196 0.13330743 0.1361956 0.14044103 0.12784788 0.06581374
-0.050947014 0.13167895 -0.04300275 0.06779647 0.10279443 -0.08018481 -0.061280992 0.112468615
0.033741597 0.05303722 0.1312002 -0.009859938 0.16458242 -0.111884646 0.079577535 -0.038981672
0.14852633 -0.058429834 0.095847316 -0.00071485457 0.042680703 0.12661572 0.13313057 -0.09990953
-0.079429686 -0.045519855 0.0038440682 0.10246933 -0.041320838 0.068815045 0.070803285 0.10393236
-0.06121319 -0.019341849 0.10906851 0.15123792 0.124042064 0.110507146 0.12814865 0.103144586
-0.006677825 0.006527069 0.09229654 0.10991106 -0.006854644 0.11325106 -0.09751291 0.031889927
0.116195336 -0.09825326 0.07365666 0.034295898 -0.0639695 -0.0112195015 0.017733516 0.088551976
0.08018792 0.060606707 -0.0878043 0.07741151 -0.09317921 0.043325845 -0.026379624 -0.12452036
-0.07202725 0.009901984 0.11792552 -0.14217757 0.0319237 0.092959076 -0.12549813 0.028625337
0.06863721 -0.016003711 -0.031433344 0.05053155 0.16010706 -0.023937946 -0.0013827163 -0.06244891
-0.0068223802 -0.11245594 -0.027815986 -0.12519759 0.10231781 0.120570734 0.043521818 -0.047687512
0.05504358 0.06992325 0.07699718 0.1279045 0.036751464 -0.004445709 0.103379264 0.039576203
-0.0573336 0.077818684 0.037965722 0.067684755 0.033510786 -0.06712336 0.0893382 -0.092741184
-0.024120938 -0.03087896 -0.03580936 0.013896156 0.10036764 -0.13393639 -0.008065989 0.017210536
-0.07519201 -0.0028518112 -0.06977711 0.15248428 0.0500766 0.05024575 -0.0066064238 0.13590199
0.015511142 0.07393014 0.16622011 0.14271843 0.019191202 0.09711316 0.062909335 -0.008866097
0.013715512 0.11829856 0.096173085 -0.05024463 -0.09520881 -0.02400947 -0.02956876 0.1321867
0.15910766 -0.047595385 0.030493492 -0.04719857 0.012115153 0.109458834 0.089067586 -0.024885276
-0.05456868 0.028318482 -0.052332953 -0.060416106 -0.0606841 -0.061594225 -0.028899368 0.07199784
0.1269185 -0.0006651154 0.03897358 0.1269281 0.07199845 -0.03256843 0.00810196 0.030973502
0.023961304 0.1465231 0.1282249 -0.07676899 -0.077145986 -0.069380604 0.050322905 -0.036544695
0.11881715 0.034143034 -0.006053791 0.019341873 0.025562625 -0.06889408 -0.05090092 -0.0341621
00000000: 0646 d03d 274c 3ebd fdf9 57bc b318 af3d
00000010: e3f3 f53c fbbd 613c 2cf8 943b f0f6 813c
00000020: a5d0 afbd 936d 92bd b6cd 973d ac6c b03d
00000030: 40d5 753d b4a2 9b3d 1ff3 0abd d669 b03d
00000040: f6d3 073e 9ca8 043d 713d 393d 06b0 033e
00000050: 5554 943d c893 273d 8461 c83d 2728 53bd
00000060: 4470 6dbc 3533 dc3d 647b e4bc 260f 893d
00000070: 6071 b93d 5d8f 073d 1044 4d3d c2fd 613d
00000080: ac97 5b3d 20f0 8b3d a534 3dbd 23ec 4c3d
00000090: 0023 1abd d32f b8bd a809 563d 8f83 a9bd
000000a0: e5d4 d4ba 44b3 56bd 6a2c fa3c 857f f5bc
000000b0: 58ed 25bd 3369 943d fc08 883d 07ea d63d
000000c0: 59c4 3b3d 3713 a7bd 67b5 f13d c662 e73d
000000d0: 6bef 50bd a1da f13d f3a1 053d c7cd f63d
000000e0: bf6b 633d e93e 073e 9a33 0e3e f58e 39bd
000000f0: 93a3 d7bc 735d ef3d f94c 083e 2c50 d83d
00000100: b201 c23d b573 f33d 9cb4 183e 8aca d1bd
00000110: c5d2 88bd 10ca dd3d 9437 a33d f6ee 97bd
00000120: e7a6 ebbc e32e 3fbd c189 ef3d be81 083e
00000130: dc76 0b3e c6cf 0f3e 8eea 023e 5bc9 863d
00000140: d1ad 50bd d9d6 063e a723 30bd e0d8 8a3d
00000150: e385 d23d ef37 a4bd c701 7bbd f255 e63d
00000160: a134 0a3d 8e3d 593d 5859 063e 948b 21bc
00000170: 4b88 283e c723 e5bd 8cf9 a23d 3fab 1fbd
00000180: 4917 183e 1f54 6fbd 994b c43d 1465 3bba
00000190: f6d1 2e3d 8da7 013e 6153 083e 5e9d ccbd
000001a0: 08ac a2bd 0773 3abd c3ec 7b3b 71db d13d
000001b0: 0a40 29bd e7ee 8c3d 5001 913d 7dda d43d
000001c0: afba 7abd cc72 9ebc 505f df3d 1dde 1a3e
000001d0: c409 fe3d 9251 e23d 6639 033e 783d d33d
000001e0: a8d1 dabb 06e1 d53b f805 bd3d 0d19 e13d
000001f0: ec9c e0bb 2cf0 e73d d9b4 c7bd 039f 023d
00000200: d2f7 ed3d 0139 c9bd 4ed9 963d db79 0c3d
00000210: 7102 83bd 00d2 37bc e145 913c bd5a b53d
00000220: 9039 a43d bd3e 783d bed2 b3bd ed89 9e3d
00000230: bed4 bebd 7176 313d 151a d8bc 8804 ffbd
00000240: 0683 93bd ee3b 223c ef82 f13d ff96 11be
00000250: 6dc2 023d 5461 be3d 9582 00be af7f ea3c
00000260: aa91 8c3d 371a 83bc 40c0 00bd 2cfa 4e3d
00000270: 1bf3 233e 8319 c4bc 433c b5ba 6eca 7fbd
00000280: 468e dfbb 4d4f e6bd 5ade e3bc cc33 00be
00000290: 008c d13d caed f63d ef43 323d fb53 43bd
000002a0: 6075 613d ec33 8f3d b3b0 9d3d 66f9 023e
000002b0: b488 163d 4fad 91bb 82b8 d33d a81a 223d
000002c0: a3d6 6abd 675f 9f3d f281 1b3d 4e9e 8a3d
000002d0: 9b42 093d f977 89bd f2f6 b63d 17ef bdbd
000002e0: 4699 c5bc dff5 fcbc d6ac 12bd b4ac 633c
000002f0: 8d8d cd3d 9f26 09be 3627 04bc 1cfd 8c3c
00000300: 45fe 99bd 74e5 3abb 4de7 8ebd d724 1c3e
00000310: 1f1d 4d3d 7dce 4d3d b37a d8bb e429 0b3e
00000320: 7222 7e3c af68 973d 9b35 2a3e c824 123e
00000330: de36 9d3c 44e3 c63d 9cd6 803d 1b43 11bc
00000340: 07b7 603c 8446 f23d 65f6 c43d 50cd 4dbd
00000350: d6fc c2bd 82af c4bc 2f3a f2bc f35b 073e
00000360: 1eed 223e 61f3 42bd 7dcd f93c 4a53 41bd
00000370: a27e 463c f42b e03d 1169 b63d 35dc cbbc
00000380: 6883 5fbd 29fc e73c 145b 56bd e176 77bd
00000390: e48f 78bd 3a4a 7cbd 5ebe ecbc 9b73 933d
000003a0: ecf6 013e 245b 2eba c3a2 1f3d 71f9 013e
000003b0: ec73 933d 7966 05bd 15be 043c 24bc fd3c
000003c0: 7f4a c43c 270a 163e 634d 033e 0f39 9dbd
000003d0: b7fe 9dbd 6b17 8ebd 641f 4e3d e4af 15bd
000003e0: 6856 f33d 91d9 0b3d e15e c6bb d972 9e3c
000003f0: b668 d13c 5718 8dbd 7c7d 50bd 8fed 0bbd

prompt_encoder.bias_hh_l0 f4 [256]
0.08060316 -0.08974175 -0.028948521 0.04708644 0.111600675 0.12861125 -0.072506554 0.0907295
-0.024863385 0.13062032 0.12030302 0.018436797 0.08595186 -0.04627537 -0.032031078 -0.057212215
0.09843877 0.1136916 -0.011454534 0.061281294 -0.04752495 -0.028071936 -0.10033165 0.12971391
-0.0840445 0.009711343 0.15062241 -0.014632441 0.063154206 0.051924024 0.07992382 -0.038554784
-0.05459055 0.019280555 0.01304868 -0.097595125 -0.009152582 0.096627034 0.057594705 -0.08098852
-0.059742462 -0.007667929 -0.059752736 0.13946274 0.0039304025 0.06141693 0.05949462 0.13532864
-0.01304199 0.06586444 0.1378906 0.14342026 0.043356385 -0.027554601 0.020712947 0.047093183
-0.10065522 0.12701598 -0.046573814 -0.0030944196 0.032365303 0.06235099 0.02127436 -0.026053732
0.02522452 -0.011598278 -0.05640051 -0.0143059995 -0.07046928 0.052933432 0.107191905 -0.0067387866
0.007880251 0.027853174 -0.039765056 -0.047418505 0.12865883 0.0367503 -0.014956625 0.08544062
0.030967042 -0.013708961 -0.09033016 -0.0015958531 0.08157516 0.11508799 0.053140443 -0.029790832
0.07067189 -0.023390679 -0.04610971 0.065192364 0.027332472 0.010229987 0.025911782 -0.088169806
0.02981643 0.041330565 -0.03236156 -0.030771287 0.04241485 0.0322403 -0.065724306 0.08111408
0.024343347 -0.073359385 0.04911124 -0.06914576 0.14930764 0.037053447 0.1499282 0.0501043
0.05958858 0.072564654 -0.09122619 -0.005381547 0.07918691 0.020088134 0.008972357 -0.030647267
0.1113199 -0.057371434 0.108939216 0.078160726 0.12409834 0.085960284 0.10615038 -0.00069193036
0.050073806 0.04118112 0.05616388 -0.043573417 -0.03243094 0.11530988 -0.07521931 -0.07803075
-0.00857096 0.11789821 -0.016686112 -0.064846955 0.07201804 -0.021682965 -0.06050943 -0.0015834403
0.034712367 -0.089326724 0.14779787 -0.1410197 -0.10128706 0.1219348 -0.04899618 -0.123772964
-0.08169556 0.07748875 0.03698061 0.104739584 -0.043639556 0.05775516 0.036658496 0.07248201
0.047016084 -0.09791949 -0.033880677 0.074705474 0.14553116 -0.048630897 -0.019997725 0.053084265
-0.09517565 0.027878538 0.11645054 0.017271703 0.033036713 0.119033284 -0.06852755 0.076714925
-0.12332156 -0.025989322 0.074023925 -0.016784225 0.105772875 -0.09251321 -0.107428044 -0.033301868
-0.120553635 -0.061506264 -0.10656058 0.055152837 -0.0150115825 0.031891514 0.0021067502 -0.0745902
0.0827762 -0.072292 -0.04976336 0.082427405 0.130847 0.16161498 -0.013623426 -0.040096205
-0.0011915552 -0.025532734 -0.034041394 0.111809626 -0.057192683 0.09085274 0.06895493 -0.002870083
0.017052535 0.06746913 0.16253611 -0.072128564 -0.057127845 0.1093051 0.0839722 -0.022983314
0.1476788 0.06702582 -0.039004862 0.03842827 0.011482032 0.014679428 0.045732595 0.14493795
0.13480821 0.11440527 0.07939246 0.1430403 0.14096607 0.095875874 0.12544511 0.14570153
-0.012264493 0.14142568 -0.06870833 0.113023706 0.108718544 0.11773301 0.13474636 -0.04474015
0.08937394 0.058439236 0.08344054 0.15000607 0.0018956756 0.11131466 0.089993306 0.093579434
0.0881478 0.11503724 0.084027626 0.14335777 -0.052293807 -0.00411099 0.03092657 -0.027805058
00000000: 4513 a53d 86ca b7bd 7325 edbc b6dd 403d
00000010: e58e e43d abb2 033e 517e 94bd 63d0 b93d
00000020: 4cae cbbc 55c1 053e 6e61 f63d c408 973c
00000030: 8707 b03d 3e8b 3dbd 0533 03bd 5b57 6abd
00000040: 449a c93d 24d7 e83d ccab 3bbc 1802 7b3d
00000050: 86a9 42bd 1ef7 e5bc ae7a cdbd b9d3 043e
00000060: 861f acbd 531c 1f3c c33c 1a3e e8bc 6fbc
00000070: fe56 813d 49ae 543d 1aaf a33d 9feb 1dbd
00000080: 579a 5fbd 41f2 9d3c 21ca 553c f4df c7bd
00000090: b6f4 15bc 65e4 c53d 6de8 6b3d 4fdd a5bd
000000a0: 83b4 74bd 4043 fbbb 49bf 74bd 52cf 0e3e
000000b0: 9bca 803b 5290 7b3d a1b0 733d 9793 0a3e
000000c0: 12ae 55bc efe3 863d 3233 0d3e c3dc 123e
000000d0: 7796 313d 30ba e1bc 33ae a93c c8e4 403d
000000e0: 5324 cebd 7a10 023e 2fc4 3ebd bfcb 4abb
000000f0: 7b91 043d c063 7f3d 9147 ae3c a36e d5bc
00000100: a7a3 ce3c b406 3ebc 3904 67bd b663 6abc
00000110: 3352 90bd bad0 583d 6e87 db3d 0ad1 dcbb
00000120: 2b1c 013c 572c e43c afe0 22bd e839 42bd
00000130: 24bf 033e 7c87 163d a20c 75bc 7efb ae3d
00000140: 98ae fd3c 8d9b 60bc 05ff b8bd f22b d1ba
00000150: e110 a73d 41b3 eb3d cba9 593d e70b f4bc
00000160: 6dbc 903d cf9d bfbc 89dd 3cbd 9383 853d
00000170: 59e8 df3c ad9b 273c f244 d43c 5f92 b4bd
00000180: 9641 f43c 3d4a 293d 8e8d 04bd 1114 fcbc
00000190: 32bb 2d3d 680e 043d 779a 86bd 241f a63d
000001a0: b36b c73c 723d 96bd de28 493d 4b9c 8dbd
000001b0: 1ae4 183e 5bc5 173d c786 193e 2b3a 4d3d
000001c0: 2813 743d c79c 943d ccd4 babd b057 b0bb
000001d0: bf2c a23d df8f a43c cb00 133c fa0f fbbc
000001e0: b0fb e33d 4ffe 6abd 861b df3d bb12 a03d
000001f0: 4527 fe3d f20b b03d 5f65 d93d a962 35ba
00000200: 311a 4d3d 89ad 283d 190c 663d 0a7a 32bd
00000210: 4ed6 04bd 9627 ec3d 950c 9abd 96ce 9fbd
00000220: 366d 0cbc 9e74 f13d 50b1 88bc 7bce 84bd
00000230: 327e 933d 79a0 b1bc bcd8 77bd 718b cfba
00000240: 8e2e 0e3d eef0 b6bd 5358 173e 7867 10be
00000250: 976f cfbd f4b8 f93d 38b0 48bd ae7c fdbd
00000260: 0050 a7bd 6cb2 9e3d fb78 173d b581 d63d
00000270: 64bf 32bd ad90 6c3d 3827 163d 7371 943d
00000280: f093 403d 038a c8bd 77c6 0abd 2fff 983d
00000290: 1f06 153e 3131 47bd 45d2 a3bc e36e 593d
000002a0: 74eb c2bd 8861 e43c 9f7d ee3d 637d 8d3c
000002b0: 8151 073d b9c7 f33d 2c58 8cbd b71c 9d3d
000002c0: 0490 fcbd 8fe7 d4bc db99 973d 127f 89bc
000002d0: 739f d83d 9177 bdbd 3c03 dcbd 8a67 08bd
000002e0: d3e4 f6bd feed 7bbd 6f3c dabd f1e7 613d
000002f0: 24f3 75bc ada0 023d 6711 0a3b bfc2 98bd
00000300: 9186 a93d d40d 94bd aad4 4bbd b3cf a83d
00000310: c2fc 053e 667e 253e ca34 5fbc eb3b 24bd
00000320: f52d 9cba 062a d1bc fd6e 0bbd 72fc e43d
00000330: e042 6abd 0011 ba3d 3e38 8d3d 0118 3cbb
00000340: c2b1 8b3c 412d 8a3d de6f 263e 24b8 93bd
00000350: e3fe 69bd 5adb df3d 9ef9 ab3d 8147 bcbc
00000360: 1d39 173e d544 893d 90c3 1fbd f666 1d3d
00000370: 221f 3c3c fc81 703c 1a52 3b3d 9d6a 143e
00000380: 2a0b 0a3e 4f4d ea3d 8498 a23d 2879 123e
00000390: 6959 103e 925a c43d af74 003e c832 153e
000003a0: 03f1 48bc e5d1 103e f4b6 8cbd f978 e73d
000003b0: d4a7 de3d 011e f13d f3fa 093e 7341 37bd
000003c0: af09 b73d fb5d 6f3d e0e2 aa3d 319b 193e
000003d0: 5178 f83a f1f8 e33d 694e b83d 93a6 bf3d
000003e0: d586 b43d a598 eb3d ad16 ac3d 61cc 123e
000003f0: 0832 56bd 7cb5 86bb b859 fd3c 6fc7 e3bc

command_encoder.weight f4 [64, 7]
0.32430503 -0.35155463 -0.3446972 -0.17613593 -0.0700125 -0.24233788 0.12987742 0.3228476
-0.098823056 0.15415266 -0.09731552 -0.08482944 0.34955034 0.21285751 -0.22079834 0.26058394
0.23182398 -0.3325373 0.119197235 -0.19040519 -0.26785946 0.24654692 0.32745278 -0.111679
-0.30611256 -0.32451794 -0.09260892 -0.3594729 -0.34393704 0.0008904668 -0.17996965 -0.013634441
-0.3306101 -0.25760946 -0.30525145 -0.05167749 0.2633163 0.24162865 -0.34202346 -0.29608294
-0.37359786 0.3415129 -0.17851368 -0.36858362 -0.19415756 -0.28950793 0.11477077 -0.25279626
0.007817328 0.060234223 -0.11097062 0.21599051 0.32798883 0.344802 -0.13075553 -0.35545582
0.14592497 0.13951959 0.29753286 0.4055929 -0.2689403 0.33553776 0.09412727 0.17941384
-0.14447336 -0.36523944 0.25763446 0.09514479 -0.110061735 0.050463468 0.38284066 -0.14759664
-0.0031614103 -0.28298932 0.10599306 0.23510581 -0.05309695 -0.2916372 0.04426089 0.19771574
-0.036834937 0.00026770946 0.31037468 0.045389026 0.020421296 -0.08519169 0.014411979 -0.017861981
0.11589137 -0.33211124 0.044906467 -0.23930626 -0.06523972 -0.314938 0.048622753 0.17651019
-0.25158727 0.010637075 0.40900692 -0.18568523 -0.1335264 0.07852577 -0.34096095 0.2789194
0.1979411 -0.44336498 -0.35904118 0.19064559 0.27628696 0.021194639 -0.08231088 -0.3196256
0.38332444 -0.09963348 0.12384581 -0.26780128 0.18893316 -0.36143714 0.07642767 -0.09185665
-0.16919152 -0.26913384 -0.11740334 -0.043302417 -0.2931324 0.1466873 -0.25523114 0.04796578
-0.012372171 0.24825948 -0.16511105 0.09959573 -0.25496888 0.37353835 -0.07699562 0.37684268
0.37712038 0.06686317 0.057260085 -0.2784546 -0.28023607 -0.23022825 0.19271594 0.08605559
0.13971342 -0.091877215 0.094180316 0.2754351 0.21484861 0.053865846 0.30954358 -0.21646482
0.21894783 0.21868959 0.19269472 0.26822 -0.29602617 -0.22540484 -0.1732193 0.23125514
0.13419095 -0.17814668 -0.4063869 0.12580091 -0.4262856 -0.32561028 0.21006212 0.17886361
0.20684832 -0.22834268 0.12898049 -0.2806067 0.3829489 -0.34634426 -0.18974423 -0.1277025
-0.366174 0.17920466 0.15819147 0.24230666 -0.14715348 0.21187934 0.048654392 -0.18268567
0.13620189 0.35918075 0.026541624 0.21535474 0.3685648 0.37891278 0.0018630344 0.015476433
-0.04251017 -0.20212138 0.07439376 0.097649276 0.39852723 -0.2275612 0.3467341 -0.22003932
-0.15910544 -0.13908927 0.14526889 -0.32041055 -0.26974112 -0.14844541 0.18176042 0.114103615
-0.27879238 -0.11970872 -0.4024401 0.16571389 -0.017418314 0.06213723 0.25844932 0.14104018
0.08585909 0.35167795 -0.22379674 0.04138253 -0.2276441 -0.25433484 0.31122497 0.14811847
-0.40123823 0.12642252 0.011768622 -0.018590648 0.16119474 0.22047523 -0.35837284 -0.25296074
0.30811322 -0.24759242 -0.35893193 0.21785174 -0.20993166 -0.09046352 -0.3092793 0.12978597
0.12496756 -0.26258993 -0.37934488 0.16707747 0.17708412 -0.27299428 -0.0897968 -0.18196304
0.08636592 0.1846331 0.25969788 0.18376157 -0.3073486 -0.21482152 -0.09305863 0.12385963
00000000: 4f0b a63e f8fe b3be 277c b0be fa5c 34be
00000010: b762 8fbd 6c27 78be 96fe 043e 484c a53e
00000020: be63 cabd 32da 1d3e 5c4d c7bd 0fbb adbd
00000030: 43f8 b23e 52f7 593e f618 62be 426b 853e
00000040: 4463 6d3e 5442 aabe ae1d f43d 94f9 42be
00000050: e024 89be cc76 7c3e e4a7 a73e f6b7 e4bd
00000060: c9ba 9cbe 3727 a6be bfa9 bdbd d50c b8be
00000070: 8418 b0be 376e 693a f749 38be fe62 5fbc
00000080: ba45 a9be 63e5 83be eb49 9cbe c7ab 53bd
00000090: 65d1 863e 806d 773e b31d afbe 2f98 97be
000000a0: 3848 bfbe c7da ae3e 4acc 36be feb6 bcbe
000000b0: 3dd1 46be 623a 94be f00c eb3d 836e 81be
000000c0: 4014 003c 29b8 763d 9044 e3bd 9e2c 5d3e
000000d0: 27ee a73e e389 b03e c7e4 05be 4efe b5be
000000e0: 5b6d 153e 39de 0e3e 3a56 983e dfa9 cf3e
000000f0: 8bb2 89be 9bcb ab3e ccc5 c03d 43b8 373e
00000100: d3f0 13be aa00 bbbe aae8 833e 46db c23d
00000110: 0c68 e1bd c8b2 4e3d b103 c43e 9323 17be
00000120: aa2f 4fbb fae3 90be e412 d93d 94bf 703e
00000130: 307c 59bd 7951 95be e84a 353d ff75 4a3e
00000140: 3be0 16bd 5b5b 8c39 6ee9 9e3e d8e9 393d
00000150: 904a a73c fb78 aebd 3920 6c3c 4a53 92bc
00000160: 7458 ed3d 7c0a aabe d8ef 373d b30c 75be
00000170: 679c 85bd 8e3f a1be a728 473d 16bf 343e
00000180: 0cd0 80be 2047 2e3c 5b69 d13e 4524 3ebe
00000190: 25bb 08be 1ed2 a03d 6f92 aebe 86ce 8e3e
000001a0: 12b1 4a3e bc00 e3be 3fd4 b7be 9938 433e
000001b0: 7c75 8d3e 61a0 ad3c 9b92 a8bd f7a5 a3be
000001c0: 1a43 c43e a30c ccbd dfa2 fd3d 401d 89be
000001d0: b277 413e 4a0e b9be 1c86 9c3d 571f bcbd
000001e0: 8b40 2dbe e9cb 89be 2a71 f0bd e05d 31bd
000001f0: 7315 96be 3235 163e a8ad 82be c477 443d
00000200: a5b4 4abc bc37 7e3e df12 29be d9f8 cb3d
00000210: 488b 82be 6b40 bf3e e1af 9dbd 86f1 c03e
00000220: ec15 c13e 8fef 883d 8d89 6a3d 9a91 8ebe
00000230: 1a7b 8fbe f4c0 6bbe 5457 453e ea3d b03d
00000240: 0911 0f3e 1f2a bcbd 9ce1 c03d d405 8d3e
00000250: 4601 5c3e 6fa2 5c3d 7f7c 9e3e f4a8 5dbe
00000260: dc33 603e 2af0 5f3e c451 453e 2254 893e
00000270: be90 97be 87d0 66be 6660 31be 26ce 6c3e
00000280: 5a69 093e 156c 36be f211 d0be f4d1 003e
00000290: 1b42 dabe 64b6 a6be 861a 573e 0628 373e
000002a0: 0cd0 533e aad2 69be 7613 043e aeab 8fbe
000002b0: e111 c43e 0954 b1be 504c 42be 72c4 02be
000002c0: 297b bbbe 6d81 373e f2fc 213e 3d1f 783e
000002d0: 67af 16be e6f6 583e d449 473d f411 3bbe
000002e0: 8278 0b3e 8ae6 b73e d26d d93c f485 5c3e
000002f0: 87b4 bc3e db00 c23e 1031 f43a dd90 7d3c
00000300: 251f 2ebd e8f8 4ebe c15b 983d 58fc c73d
00000310: c30b cc3e ce05 69be 2287 b13e fd51 61be
00000320: 89ec 22be 6b6d 0ebe 5ec1 143e da0c a4be
00000330: 821b 8abe 1302 18be 671f 3a3e 28af e93d
00000340: e0bd 8ebe d829 f5bd a10c cebe e7b0 293e
00000350: dab0 8ebc 9c83 7e3d 7853 843e d66c 103e
00000360: e4d6 af3d 220f b43e f92a 65be ba80 293d
00000370: 891b 69be 2d38 82be e158 9f3e 5eac 173e
00000380: 196f cdbe e874 013e 2ed1 403c 6a4b 98bc
00000390: 3c10 253e 42c4 613e a57c b7be 1284 81be
000003a0: 04c1 9d3e de88 7dbe edc5 b7be 8714 5f3e
000003b0: 53f8 56be f044 b9bd db59 9ebe 9de6 043e
000003c0: feee ff3d 3072 86be 7e39 c2be 5b16 2b3e
000003d0: 8a55 353e e8c5 8bbe 62e7 b7bd 8554 3abe
000003e0: 9ee0 b03d 7610 3d3e 1ff7 843e fe2b 3c3e
000003f0: cc5c 9dbe 2cfa 5bbe 8695 bebd 1eaa fd3d

command_encoder.bias f4 [64]
-0.28113574 -0.122475766 -0.076147206 0.07394641 0.09334561 0.22841743 -0.3976997 0.23669516
-0.13433099 -0.21556717 0.034167584 0.1572975 -0.23782599 -0.2016339 0.25133952 0.10203794
0.28335938 -0.4569703 0.1853315 -0.13605307 0.27151778 0.0655531 0.055174727 -0.16665679
0.0036054002 -0.1690627 0.006561931 -0.053173535 -0.009254332 -0.06583915 -0.15170662 -0.25359342
-0.3405229 -0.44203615 0.11688698 0.13845237 -0.017620731 -0.24168237 -0.3868237 -0.3678863
-0.24935186 -0.1408903 0.3094283 -0.10739247 0.15937859 0.3256209 0.0638022 0.33968663
-0.30245343 -0.24851798 -0.18662521 -0.4205499 -0.07282932 0.21307518 0.21297163 -0.07102633
0.22358423 0.41035724 0.36484915 0.34943524 0.1928214 0.35885248 -0.3484238 0.38585022
00000000: 06f1 8fbe 93d4 fabd 11f3 9bbd 3771 973d
00000010: fc2b bf3d 42e6 693e 4c9f cbbe 3760 723e
00000020: 108e 09be a4bd 5cbe 4ff3 0b3d 9912 213e
00000030: a888 73be 1e79 4ebe 93af 803e 44f9 d03d
00000040: 7b14 913e 03f8 e9be 8ac7 3d3e 7f51 0bbe
00000050: 6104 8b3e b440 863d e5fe 613d 14a8 2abe
00000060: 9448 6c3b c61e 2dbe 7805 d73b 7ecc 59bd
00000070: 7b9f 17bc add6 86bd fb58 1bbe ffd6 81be
00000080: 0459 aebe 9052 e2be 7162 ef3d 75c6 0d3e
00000090: 5a59 90bc 957b 77be c20d c6be 985b bcbe
000000a0: 1856 7fbe 8c45 10be 636d 9e3e 95f0 dbbd
000000b0: 2434 233e c8b7 a63e baaa 823d 68eb ad3e
000000c0: 2ddb 9abe 7f7b 7ebe ae1a 3fbe 5152 d7be
000000d0: 8a27 95bd 6130 5a3e 3c15 5a3e 4176 91bd
000000e0: 44f3 643e 581a d23e 82cd ba3e 2de9 b23e
000000f0: f972 453e 83bb b73e 9b64 b2be 298e c53e

decoder.weight_ih_l0 f4 [256, 128]
0.035333496 -0.012548821 0.032806918 -0.03284761 0.05256102 -0.012488513 0.06642071 -0.034323424
0.02167347 -0.10682383 0.032138895 -0.06105072 0.09623309 0.042868882 -0.006358445 -0.11310704
-0.0978419 0.08054658 -0.10217046 0.013407866 -0.070672944 0.15173948 -0.10852227 -0.039776284
-0.100194454 0.10843297 0.035238102 0.008107172 0.0852653 0.06575679 -0.099435516 -0.0937637
-0.1099301 -0.015492689 0.065585725 0.07631343 -0.10692264 0.085395575 -0.0015184819 0.04464767
-0.008674361 0.09789028 0.020132264 0.0015728169 -0.046999197 0.015615573 0.0728435 0.018848198
-0.028478887 -0.02588902 0.1161056 -0.010004465 0.11495179 0.08280633 -0.0225597 0.035688043
0.12250702 0.13031837 0.12489123 0.07827543 -0.07781663 0.1464892 -0.024887023 0.09676782
0.16803291 -0.17719714 -0.1093529 -0.03194159 0.18407688 -0.00080805173 -0.16259822 0.013692564
0.064033926 0.18421881 0.004638241 0.075884365 -0.14268991 0.04499902 -0.17642185 -0.09350911
-0.040303856 0.029201092 0.027747158 -0.101401255 -0.017812775 0.08140983 -0.04127699 -0.06162644
0.02041495 -0.13717525 0.04992323 0.081585355 0.15535302 -0.14625831 0.15212835 -0.030878523
-0.07859757 -0.110149704 -0.039310195 -0.07876595 -0.0062379255 0.098208465 0.15920722 0.018405426
-0.091396116 -0.028005412 0.044205733 0.06786192 0.13039981 0.12451749 0.05286495 -0.039977495
-0.16374636 0.022057787 -0.14765258 0.09887967 -0.13248886 0.012343042 -0.11853653 0.07301703
-0.18518743 0.03232242 0.033883885 -0.027671155 0.033318732 -0.053679295 0.0255338 0.10912139
-0.038573906 -0.022277063 0.027368132 -0.021829566 0.091374755 -0.057794545 0.07287642 0.087048315
0.07163395 0.040635735 0.032424506 0.14606002 0.085046604 0.018384265 0.04247647 -0.07301935
0.07820415 -0.06879198 -0.049338765 -0.08436174 0.1420178 -0.050192837 0.01920551 -0.13440843
-0.03996423 0.11059668 0.03284897 -0.05198495 0.017265413 -0.08407692 0.14168166 0.060549196
0.027465615 0.033764888 -0.033512954 0.043693863 -0.075273775 -0.11940153 -0.020965958 -0.14535607
-0.13085859 -0.09500255 0.0318784 -0.065161675 -0.10685751 -0.110638745 -0.02707985 -0.056446206
0.08902281 0.06803433 0.08091662 -0.08112373 -0.01613124 0.078084044 0.10971799 0.10703283
0.0697743 0.049823392 -0.045680285 -0.091928005 0.09572637 0.020808814 0.047362242 -0.099791154
0.016817136 0.10243288 -0.1018076 0.06924975 -0.10779355 0.06396177 -0.09117471 0.056827273
0.0796363 -0.018188335 -0.047164243 0.09415859 0.10707317 -0.06399418 -0.05707878 0.09598725
-0.11170636 0.023269722 0.015998084 -0.038613297 -0.030273316 -0.071214944 0.08223834 -0.052746408
-0.05990166 0.021331556 0.07832944 -0.008044236 0.021407621 -0.080632955 0.06598914 -0.015228775
0.05738751 -0.09875173 0.039947744 0.054257937 0.11675035 -0.11940752 -0.005651062 0.02713149
0.06547063 0.06266668 -0.07413852 0.08857067 -0.09434658 0.09815981 -0.01431616 0.05311332
0.06281243 -0.0806234 0.034139764 0.08744252 -0.117700696 0.10414532 -0.05121776 0.078166775
-0.09367895 0.07343963 -0.0418224 -0.12996271 -0.0485127 -0.117799886 -0.041376162 -0.08911883
00000000: dbb9 103d 9299 4dbc 8c60 063d 378b 06bd
00000010: 394a 573d 9f9c 4cbc 9507 883d b896 0cbd
00000020: 908c b13c 74c6 dabd 13a4 033d 5210 7abd
00000030: db15 c53d 4897 2f3d 815a d0bb aaa4 e7bd
00000040: 5661 c8bd 9bf5 a43d bf3e d1bd aaac 5b3c
00000050: fabc 90bd 9861 1b3e ed40 debd 75ec 22bd
00000060: c032 cdbd 1b12 de3d d455 103d f2d3 043c
00000070: 939f ae3d 7fab 863d d9a4 cbbd 2f07 c0bd
00000080: 0823 e1bd 0cd5 7dbc cf51 863d 374a 9c3d
00000090: 42fa dabd e0e3 ae3d cc07 c7ba 7ae0 363d
000000a0: e81e 0ebc b37a c83d 6bec a43c fa26 ce3a
000000b0: 3b82 40bd 76d8 7f3c f92e 953d 8967 9a3c
000000c0: 8e4c e9bc 3615 d4bc c6c8 ed3d c4e9 23bc
000000d0: d86b eb3d 5d96 a93d 1fcf b8bc a02d 123d
000000e0: f6e4 fa3d 2e72 053e f9c6 ff3d de4e a03d
000000f0: 535e 9fbd 4401 163e dfdf cbbc 352e c63d
00000100: d210 2c3e 2b73 35be 6af4 dfbd 2fd5 02bd
00000110: a67e 3c3e 6fd3 53ba 2680 26be c756 603c
00000120: 3824 833d dba3 3c3e 63fc 973b 4369 9b3d
00000130: 4e1d 12be e450 383d eea7 34be b481 bfbd
00000140: a815 25bd 2137 ef3c 024e e33c 76ab cfbd
00000150: 19ec 91bc 32ba a63d 1012 29bd 026c 7cbd
00000160: 413d a73c ab77 0cbe 4d7c 4c3d 3916 a73d
00000170: dd14 1f3e bdc4 15be 89c7 1b3e f5f4 fcbc
00000180: c3f7 a0bd 2b96 e1bd ba03 21bd 0b50 a1bd
00000190: 8367 ccbb 8521 c93d 3807 233e fac6 963c
000001a0: e32d bbbd 9b6b e5bc 1211 353d 31fb 8a3d
000001b0: 8787 053e 0703 ff3d eb88 583d 71bf 23bd
000001c0: 20ad 27be 88b2 b43c 3d32 17be 6d81 ca3d
000001d0: 29ab 07be 783a 4a3c 48c3 f2bd f489 953d
000001e0: c6a1 3dbe 8464 043d d4c9 0a3d 9eae e2bc
000001f0: 3979 083d d2de 5bbd 422c d13c 097b df3d
00000200: acff 1dbd 637e b6bc 2233 e03c ebd3 b2bc
00000210: b022 bb3d f9b9 6cbd 3c40 953d 6346 b23d
00000220: d2b4 923d a871 263d 8fcf 043d c290 153e
00000230: ea2c ae3d 999a 963c cffb 2d3d 2b8b 95bd
00000240: 7f29 a03d cfe2 8cbd 7217 4abd d9c5 acbd
00000250: 1d6d 113e 0197 4dbd e054 9d3c 5da2 09be
00000260: 88b1 23bd 8380 e23d a48c 063d 2cee 54bd
00000270: 3270 8d3c 8530 acbd ff14 113e 6f02 783d
00000280: 92ff e03c 0d4d 0a3d e144 09bd 56f8 323d
00000290: 2329 9abd ca88 f4bd cdc0 abbc 39d8 14be
000002a0: cbff 05be b290 c2bd ed92 023d 7c73 85bd
000002b0: 1cd8 dabd 9196 e2bd 90d6 ddbc 2334 67bd
000002c0: 9751 b63d 9555 8b3d 9db7 a53d 3324 a6bd
000002d0: aa25 84bc 87ea 9f3d d3b3 e03d 0734 db3d
000002e0: d4e5 8e3d 9d13 4c3d 401b 3bbd c044 bcbd
000002f0: 300c c43d 3f77 aa3c e9fe 413d 4e5f ccbd
00000300: 17c4 893c 54c8 d13d 8180 d0bd d0d2 8d3d
00000310: ddc2 dcbd 63fe 823d ceb9 babd b7c3 683d
00000320: 5b18 a33d b4ff 94bc 4b2f 41bd 38d6 c03d
00000330: 2e49 db3d 610f 83bd 70cb 69bd f794 c43d
00000340: 4ec6 e4bd 25a0 be3c 6a0e 833c fa28 1ebd
00000350: bfff f7bc 24d9 91bd 936c a83d 9e0c 58bd
00000360: 715b 75bd 84bf ae3c 2f6b a03d f9cb 03bc
00000370: 095f af3c e422 a5bd 5025 873d 1d82 79bc
00000380: 2a0f 6b3d 593e cabd 3fa0 233d 923d 5e3d
00000390: cf1a ef3d ee8b f4bd 8b2c b9bb dc42 de3c
000003a0: 7715 863d 6357 803d f0d5 97bd 8a64 b53d
000003b0: c838 c1bd 0308 c93d 548e 6abc 5a8d 593d
000003c0: cea3 803d e21d a5bd 23d6 0b3d 1015 b33d
000003d0: 100d f1bd 244a d53d b7c9 51bd e715 a03d
000003e0: c0da bfbd 8467 963d f74d 2bbd f214 05be
000003f0: 41b5 46bd 1141 f1bd 0d7a 29bd ef83 b6bd
